…
I1105 21:20:55.233781 15603 net.cpp:322] The NetState phase (0) differed from the phase (1) specified by a rule in layer accuracy
I1105 21:20:55.233932 15603 net.cpp:58] Initializing net from parameters: 
name: "CaffeNet"
state {
  phase: TRAIN
  level: 0
  stage: ""
}
layer {
  name: "data"
  type: "Data"
  top: "data"
  top: "label"
  include {
    phase: TRAIN
  }
  transform_param {
    mirror: true
    crop_size: 227
    mean_file: "data/dcase3/imagenet_mean.binaryproto"
  }
  data_param {
    source: "examples/dcase3/dcase3_train_lmdb"
    batch_size: 256
    backend: LMDB
  }
}
layer {
  name: "conv1"
  type: "Convolution"
  bottom: "data"
  top: "conv1"
  param {
    lr_mult: 1
    decay_mult: 1
  }
  param {
    lr_mult: 2
    decay_mult: 0
  }
  convolution_param {
    num_output: 96
    kernel_size: 11
    stride: 4
    weight_filler {
      type: "gaussian"
      std: 0.01
    }
    bias_filler {
      type: "constant"
      value: 0
    }
  }
}
layer {
  name: "relu1"
  type: "ReLU"
  bottom: "conv1"
  top: "conv1"
}
layer {
  name: "pool1"
  type: "Pooling"
  bottom: "conv1"
  top: "pool1"
  pooling_param {
    pool: MAX
    kernel_size: 3
    stride: 2
  }
}
layer {
  name: "norm1"
  type: "LRN"
  bottom: "pool1"
  top: "norm1"
  lrn_param {
    local_size: 5
    alpha: 0.0001
    beta: 0.75
  }
}
layer {
  name: "conv2"
  type: "Convolution"
  bottom: "norm1"
  top: "conv2"
  param {
    lr_mult: 1
    decay_mult: 1
  }
  param {
    lr_mult: 2
    decay_mult: 0
  }
  convolution_param {
    num_output: 256
    pad: 2
    kernel_size: 5
    group: 2
    weight_filler {
      type: "gaussian"
      std: 0.01
    }
    bias_filler {
      type: "constant"
      value: 1
    }
  }
}
layer {
  name: "relu2"
  type: "ReLU"
  bottom: "conv2"
  top: "conv2"
}
layer {
  name: "pool2"
  type: "Pooling"
  bottom: "conv2"
  top: "pool2"
  pooling_param {
    pool: MAX
    kernel_size: 3
    stride: 2
  }
}
layer {
  name: "norm2"
  type: "LRN"
  bottom: "pool2"
  top: "norm2"
  lrn_param {
    local_size: 5
    alpha: 0.0001
    beta: 0.75
  }
}
layer {
  name: "conv3"
  type: "Convolution"
  bottom: "norm2"
  top: "conv3"
  param {
    lr_mult: 1
    decay_mult: 1
  }
  param {
    lr_mult: 2
    decay_mult: 0
  }
  convolution_param {
    num_output: 384
    pad: 1
    kernel_size: 3
    weight_filler {
      type: "gaussian"
      std: 0.01
    }
    bias_filler {
      type: "constant"
      value: 0
    }
  }
}
layer {
  name: "relu3"
  type: "ReLU"
  bottom: "conv3"
  top: "conv3"
}
layer {
  name: "conv4"
  type: "Convolution"
  bottom: "conv3"
  top: "conv4"
  param {
    lr_mult: 1
    decay_mult: 1
  }
  param {
    lr_mult: 2
    decay_mult: 0
  }
  convolution_param {
    num_output: 384
    pad: 1
    kernel_size: 3
    group: 2
    weight_filler {
      type: "gaussian"
      std: 0.01
    }
    bias_filler {
      type: "constant"
      value: 1
    }
  }
}
layer {
  name: "relu4"
  type: "ReLU"
  bottom: "conv4"
  top: "conv4"
}
layer {
  name: "conv5"
  type: "Convolution"
  bottom: "conv4"
  top: "conv5"
  param {
    lr_mult: 1
    decay_mult: 1
  }
  param {
    lr_mult: 2
    decay_mult: 0
  }
  convolution_param {
    num_output: 256
    pad: 1
    kernel_size: 3
    group: 2
    weight_filler {
      type: "gaussian"
      std: 0.01
    }
    bias_filler {
      type: "constant"
      value: 1
    }
  }
}
layer {
  name: "relu5"
  type: "ReLU"
  bottom: "conv5"
  top: "conv5"
}
layer {
  name: "pool5"
  type: "Pooling"
  bottom: "conv5"
  top: "pool5"
  pooling_param {
    pool: MAX
    kernel_size: 3
    stride: 2
  }
}
layer {
  name: "fc6"
  type: "InnerProduct"
  bottom: "pool5"
  top: "fc6"
  param {
    lr_mult: 1
    decay_mult: 1
  }
  param {
    lr_mult: 2
    decay_mult: 0
  }
  inner_product_param {
    num_output: 4096
    weight_filler {
      type: "gaussian"
      std: 0.005
    }
    bias_filler {
      type: "constant"
      value: 1
    }
  }
}
layer {
  name: "relu6"
  type: "ReLU"
  bottom: "fc6"
  top: "fc6"
}
layer {
  name: "drop6"
  type: "Dropout"
  bottom: "fc6"
  top: "fc6"
  dropout_param {
    dropout_ratio: 0.5
  }
}
layer {
  name: "fc7"
  type: "InnerProduct"
  bottom: "fc6"
  top: "fc7"
  param {
    lr_mult: 1
    decay_mult: 1
  }
  param {
    lr_mult: 2
    decay_mult: 0
  }
  inner_product_param {
    num_output: 4096
    weight_filler {
      type: "gaussian"
      std: 0.005
    }
    bias_filler {
      type: "constant"
      value: 1
    }
  }
}
layer {
  name: "relu7"
  type: "ReLU"
  bottom: "fc7"
  top: "fc7"
}
layer {
  name: "drop7"
  type: "Dropout"
  bottom: "fc7"
  top: "fc7"
  dropout_param {
    dropout_ratio: 0.5
  }
}
layer {
  name: "fc8"
  type: "InnerProduct"
  bottom: "fc7"
  top: "fc8"
  param {
    lr_mult: 1
    decay_mult: 1
  }
  param {
    lr_mult: 2
    decay_mult: 0
  }
  inner_product_param {
    num_output: 15
    weight_filler {
      type: "gaussian"
      std: 0.01
    }
    bias_filler {
      type: "constant"
      value: 0
    }
  }
}
layer {
  name: "loss"
  type: "SoftmaxWithLoss"
  bottom: "fc8"
  bottom: "label"
  top: "loss"
}
I1105 21:20:55.234038 15603 layer_factory.hpp:77] Creating layer data
I1105 21:20:55.234550 15603 net.cpp:100] Creating Layer data
I1105 21:20:55.234576 15603 net.cpp:408] data -> data
I1105 21:20:55.234599 15603 net.cpp:408] data -> label
I1105 21:20:55.234616 15603 data_transformer.cpp:25] Loading mean file from: data/dcase3/imagenet_mean.binaryproto
I1105 21:20:55.235311 15607 db_lmdb.cpp:35] Opened lmdb examples/dcase3/dcase3_train_lmdb
I1105 21:20:55.329406 15603 data_layer.cpp:41] output data size: 256,3,227,227
I1105 21:20:55.728737 15603 net.cpp:150] Setting up data
I1105 21:20:55.728780 15603 net.cpp:157] Top shape: 256 3 227 227 (39574272)
I1105 21:20:55.728787 15603 net.cpp:157] Top shape: 256 (256)
I1105 21:20:55.728791 15603 net.cpp:165] Memory required for data: 158298112
I1105 21:20:55.728801 15603 layer_factory.hpp:77] Creating layer conv1
I1105 21:20:55.728821 15603 net.cpp:100] Creating Layer conv1
I1105 21:20:55.728827 15603 net.cpp:434] conv1 <- data
I1105 21:20:55.728837 15603 net.cpp:408] conv1 -> conv1
I1105 21:20:55.755904 15603 net.cpp:150] Setting up conv1
I1105 21:20:55.755923 15603 net.cpp:157] Top shape: 256 96 55 55 (74342400)
I1105 21:20:55.755928 15603 net.cpp:165] Memory required for data: 455667712
I1105 21:20:55.755941 15603 layer_factory.hpp:77] Creating layer relu1
I1105 21:20:55.755950 15603 net.cpp:100] Creating Layer relu1
I1105 21:20:55.755955 15603 net.cpp:434] relu1 <- conv1
I1105 21:20:55.755961 15603 net.cpp:395] relu1 -> conv1 (in-place)
I1105 21:20:55.755973 15603 net.cpp:150] Setting up relu1
I1105 21:20:55.755978 15603 net.cpp:157] Top shape: 256 96 55 55 (74342400)
I1105 21:20:55.755982 15603 net.cpp:165] Memory required for data: 753037312
I1105 21:20:55.755986 15603 layer_factory.hpp:77] Creating layer pool1
I1105 21:20:55.755993 15603 net.cpp:100] Creating Layer pool1
I1105 21:20:55.755997 15603 net.cpp:434] pool1 <- conv1
I1105 21:20:55.756002 15603 net.cpp:408] pool1 -> pool1
I1105 21:20:55.756039 15603 net.cpp:150] Setting up pool1
I1105 21:20:55.756047 15603 net.cpp:157] Top shape: 256 96 27 27 (17915904)
I1105 21:20:55.756052 15603 net.cpp:165] Memory required for data: 824700928
I1105 21:20:55.756054 15603 layer_factory.hpp:77] Creating layer norm1
I1105 21:20:55.756062 15603 net.cpp:100] Creating Layer norm1
I1105 21:20:55.756073 15603 net.cpp:434] norm1 <- pool1
I1105 21:20:55.756084 15603 net.cpp:408] norm1 -> norm1
I1105 21:20:55.756119 15603 net.cpp:150] Setting up norm1
I1105 21:20:55.756127 15603 net.cpp:157] Top shape: 256 96 27 27 (17915904)
I1105 21:20:55.756131 15603 net.cpp:165] Memory required for data: 896364544
I1105 21:20:55.756135 15603 layer_factory.hpp:77] Creating layer conv2
I1105 21:20:55.756145 15603 net.cpp:100] Creating Layer conv2
I1105 21:20:55.756148 15603 net.cpp:434] conv2 <- norm1
I1105 21:20:55.756155 15603 net.cpp:408] conv2 -> conv2
I1105 21:20:55.764926 15603 net.cpp:150] Setting up conv2
I1105 21:20:55.764955 15603 net.cpp:157] Top shape: 256 256 27 27 (47775744)
I1105 21:20:55.764960 15603 net.cpp:165] Memory required for data: 1087467520
I1105 21:20:55.764971 15603 layer_factory.hpp:77] Creating layer relu2
I1105 21:20:55.764979 15603 net.cpp:100] Creating Layer relu2
I1105 21:20:55.764983 15603 net.cpp:434] relu2 <- conv2
I1105 21:20:55.764989 15603 net.cpp:395] relu2 -> conv2 (in-place)
I1105 21:20:55.764998 15603 net.cpp:150] Setting up relu2
I1105 21:20:55.765003 15603 net.cpp:157] Top shape: 256 256 27 27 (47775744)
I1105 21:20:55.765007 15603 net.cpp:165] Memory required for data: 1278570496
I1105 21:20:55.765010 15603 layer_factory.hpp:77] Creating layer pool2
I1105 21:20:55.765017 15603 net.cpp:100] Creating Layer pool2
I1105 21:20:55.765020 15603 net.cpp:434] pool2 <- conv2
I1105 21:20:55.765025 15603 net.cpp:408] pool2 -> pool2
I1105 21:20:55.765056 15603 net.cpp:150] Setting up pool2
I1105 21:20:55.765064 15603 net.cpp:157] Top shape: 256 256 13 13 (11075584)
I1105 21:20:55.765067 15603 net.cpp:165] Memory required for data: 1322872832
I1105 21:20:55.765071 15603 layer_factory.hpp:77] Creating layer norm2
I1105 21:20:55.765079 15603 net.cpp:100] Creating Layer norm2
I1105 21:20:55.765084 15603 net.cpp:434] norm2 <- pool2
I1105 21:20:55.765089 15603 net.cpp:408] norm2 -> norm2
I1105 21:20:55.765115 15603 net.cpp:150] Setting up norm2
I1105 21:20:55.765120 15603 net.cpp:157] Top shape: 256 256 13 13 (11075584)
I1105 21:20:55.765125 15603 net.cpp:165] Memory required for data: 1367175168
I1105 21:20:55.765128 15603 layer_factory.hpp:77] Creating layer conv3
I1105 21:20:55.765137 15603 net.cpp:100] Creating Layer conv3
I1105 21:20:55.765141 15603 net.cpp:434] conv3 <- norm2
I1105 21:20:55.765147 15603 net.cpp:408] conv3 -> conv3
I1105 21:20:55.788907 15603 net.cpp:150] Setting up conv3
I1105 21:20:55.788936 15603 net.cpp:157] Top shape: 256 384 13 13 (16613376)
I1105 21:20:55.788940 15603 net.cpp:165] Memory required for data: 1433628672
I1105 21:20:55.788952 15603 layer_factory.hpp:77] Creating layer relu3
I1105 21:20:55.788961 15603 net.cpp:100] Creating Layer relu3
I1105 21:20:55.788966 15603 net.cpp:434] relu3 <- conv3
I1105 21:20:55.788974 15603 net.cpp:395] relu3 -> conv3 (in-place)
I1105 21:20:55.788982 15603 net.cpp:150] Setting up relu3
I1105 21:20:55.788986 15603 net.cpp:157] Top shape: 256 384 13 13 (16613376)
I1105 21:20:55.788990 15603 net.cpp:165] Memory required for data: 1500082176
I1105 21:20:55.788995 15603 layer_factory.hpp:77] Creating layer conv4
I1105 21:20:55.789005 15603 net.cpp:100] Creating Layer conv4
I1105 21:20:55.789008 15603 net.cpp:434] conv4 <- conv3
I1105 21:20:55.789014 15603 net.cpp:408] conv4 -> conv4
I1105 21:20:55.806957 15603 net.cpp:150] Setting up conv4
I1105 21:20:55.806988 15603 net.cpp:157] Top shape: 256 384 13 13 (16613376)
I1105 21:20:55.806993 15603 net.cpp:165] Memory required for data: 1566535680
I1105 21:20:55.807000 15603 layer_factory.hpp:77] Creating layer relu4
I1105 21:20:55.807009 15603 net.cpp:100] Creating Layer relu4
I1105 21:20:55.807014 15603 net.cpp:434] relu4 <- conv4
I1105 21:20:55.807021 15603 net.cpp:395] relu4 -> conv4 (in-place)
I1105 21:20:55.807030 15603 net.cpp:150] Setting up relu4
I1105 21:20:55.807035 15603 net.cpp:157] Top shape: 256 384 13 13 (16613376)
I1105 21:20:55.807039 15603 net.cpp:165] Memory required for data: 1632989184
I1105 21:20:55.807042 15603 layer_factory.hpp:77] Creating layer conv5
I1105 21:20:55.807060 15603 net.cpp:100] Creating Layer conv5
I1105 21:20:55.807070 15603 net.cpp:434] conv5 <- conv4
I1105 21:20:55.807077 15603 net.cpp:408] conv5 -> conv5
I1105 21:20:55.819170 15603 net.cpp:150] Setting up conv5
I1105 21:20:55.819198 15603 net.cpp:157] Top shape: 256 256 13 13 (11075584)
I1105 21:20:55.819202 15603 net.cpp:165] Memory required for data: 1677291520
I1105 21:20:55.819214 15603 layer_factory.hpp:77] Creating layer relu5
I1105 21:20:55.819223 15603 net.cpp:100] Creating Layer relu5
I1105 21:20:55.819228 15603 net.cpp:434] relu5 <- conv5
I1105 21:20:55.819234 15603 net.cpp:395] relu5 -> conv5 (in-place)
I1105 21:20:55.819242 15603 net.cpp:150] Setting up relu5
I1105 21:20:55.819248 15603 net.cpp:157] Top shape: 256 256 13 13 (11075584)
I1105 21:20:55.819252 15603 net.cpp:165] Memory required for data: 1721593856
I1105 21:20:55.819255 15603 layer_factory.hpp:77] Creating layer pool5
I1105 21:20:55.819262 15603 net.cpp:100] Creating Layer pool5
I1105 21:20:55.819265 15603 net.cpp:434] pool5 <- conv5
I1105 21:20:55.819270 15603 net.cpp:408] pool5 -> pool5
I1105 21:20:55.819301 15603 net.cpp:150] Setting up pool5
I1105 21:20:55.819308 15603 net.cpp:157] Top shape: 256 256 6 6 (2359296)
I1105 21:20:55.819313 15603 net.cpp:165] Memory required for data: 1731031040
I1105 21:20:55.819316 15603 layer_factory.hpp:77] Creating layer fc6
I1105 21:20:55.819331 15603 net.cpp:100] Creating Layer fc6
I1105 21:20:55.819336 15603 net.cpp:434] fc6 <- pool5
I1105 21:20:55.819342 15603 net.cpp:408] fc6 -> fc6
I1105 21:20:56.830211 15603 net.cpp:150] Setting up fc6
I1105 21:20:56.830245 15603 net.cpp:157] Top shape: 256 4096 (1048576)
I1105 21:20:56.830250 15603 net.cpp:165] Memory required for data: 1735225344
I1105 21:20:56.830260 15603 layer_factory.hpp:77] Creating layer relu6
I1105 21:20:56.830270 15603 net.cpp:100] Creating Layer relu6
I1105 21:20:56.830274 15603 net.cpp:434] relu6 <- fc6
I1105 21:20:56.830281 15603 net.cpp:395] relu6 -> fc6 (in-place)
I1105 21:20:56.830291 15603 net.cpp:150] Setting up relu6
I1105 21:20:56.830294 15603 net.cpp:157] Top shape: 256 4096 (1048576)
I1105 21:20:56.830298 15603 net.cpp:165] Memory required for data: 1739419648
I1105 21:20:56.830302 15603 layer_factory.hpp:77] Creating layer drop6
I1105 21:20:56.830315 15603 net.cpp:100] Creating Layer drop6
I1105 21:20:56.830320 15603 net.cpp:434] drop6 <- fc6
I1105 21:20:56.830324 15603 net.cpp:395] drop6 -> fc6 (in-place)
I1105 21:20:56.830345 15603 net.cpp:150] Setting up drop6
I1105 21:20:56.830353 15603 net.cpp:157] Top shape: 256 4096 (1048576)
I1105 21:20:56.830356 15603 net.cpp:165] Memory required for data: 1743613952
I1105 21:20:56.830359 15603 layer_factory.hpp:77] Creating layer fc7
I1105 21:20:56.830368 15603 net.cpp:100] Creating Layer fc7
I1105 21:20:56.830371 15603 net.cpp:434] fc7 <- fc6
I1105 21:20:56.830377 15603 net.cpp:408] fc7 -> fc7
I1105 21:20:57.278367 15603 net.cpp:150] Setting up fc7
I1105 21:20:57.278399 15603 net.cpp:157] Top shape: 256 4096 (1048576)
I1105 21:20:57.278404 15603 net.cpp:165] Memory required for data: 1747808256
I1105 21:20:57.278414 15603 layer_factory.hpp:77] Creating layer relu7
I1105 21:20:57.278426 15603 net.cpp:100] Creating Layer relu7
I1105 21:20:57.278432 15603 net.cpp:434] relu7 <- fc7
I1105 21:20:57.278439 15603 net.cpp:395] relu7 -> fc7 (in-place)
I1105 21:20:57.278450 15603 net.cpp:150] Setting up relu7
I1105 21:20:57.278453 15603 net.cpp:157] Top shape: 256 4096 (1048576)
I1105 21:20:57.278457 15603 net.cpp:165] Memory required for data: 1752002560
I1105 21:20:57.278460 15603 layer_factory.hpp:77] Creating layer drop7
I1105 21:20:57.278467 15603 net.cpp:100] Creating Layer drop7
I1105 21:20:57.278471 15603 net.cpp:434] drop7 <- fc7
I1105 21:20:57.278476 15603 net.cpp:395] drop7 -> fc7 (in-place)
I1105 21:20:57.278493 15603 net.cpp:150] Setting up drop7
I1105 21:20:57.278499 15603 net.cpp:157] Top shape: 256 4096 (1048576)
I1105 21:20:57.278503 15603 net.cpp:165] Memory required for data: 1756196864
I1105 21:20:57.278507 15603 layer_factory.hpp:77] Creating layer fc8
I1105 21:20:57.278522 15603 net.cpp:100] Creating Layer fc8
I1105 21:20:57.278533 15603 net.cpp:434] fc8 <- fc7
I1105 21:20:57.278539 15603 net.cpp:408] fc8 -> fc8
I1105 21:20:57.280216 15603 net.cpp:150] Setting up fc8
I1105 21:20:57.280225 15603 net.cpp:157] Top shape: 256 15 (3840)
I1105 21:20:57.280230 15603 net.cpp:165] Memory required for data: 1756212224
I1105 21:20:57.280236 15603 layer_factory.hpp:77] Creating layer loss
I1105 21:20:57.280248 15603 net.cpp:100] Creating Layer loss
I1105 21:20:57.280253 15603 net.cpp:434] loss <- fc8
I1105 21:20:57.280257 15603 net.cpp:434] loss <- label
I1105 21:20:57.280266 15603 net.cpp:408] loss -> loss
I1105 21:20:57.280277 15603 layer_factory.hpp:77] Creating layer loss
…
I1105 21:20:57.281122 15603 net.cpp:322] The NetState phase (1) differed from the phase (0) specified by a rule in layer data
I1105 21:20:57.281281 15603 net.cpp:58] Initializing net from parameters: 
name: "CaffeNet"
state {
  phase: TEST
}
layer {
  name: "data"
  type: "Data"
  top: "data"
  top: "label"
  include {
    phase: TEST
  }
  transform_param {
    mirror: false
    crop_size: 227
    mean_file: "data/dcase3/imagenet_mean.binaryproto"
  }
  data_param {
    source: "examples/dcase3/dcase3_val_lmdb"
    batch_size: 50
    backend: LMDB
  }
}
layer {
  name: "conv1"
  type: "Convolution"
  bottom: "data"
  top: "conv1"
  param {
    lr_mult: 1
    decay_mult: 1
  }
  param {
    lr_mult: 2
    decay_mult: 0
  }
  convolution_param {
    num_output: 96
    kernel_size: 11
    stride: 4
    weight_filler {
      type: "gaussian"
      std: 0.01
    }
    bias_filler {
      type: "constant"
      value: 0
    }
  }
}
layer {
  name: "relu1"
  type: "ReLU"
  bottom: "conv1"
  top: "conv1"
}
layer {
  name: "pool1"
  type: "Pooling"
  bottom: "conv1"
  top: "pool1"
  pooling_param {
    pool: MAX
    kernel_size: 3
    stride: 2
  }
}
layer {
  name: "norm1"
  type: "LRN"
  bottom: "pool1"
  top: "norm1"
  lrn_param {
    local_size: 5
    alpha: 0.0001
    beta: 0.75
  }
}
layer {
  name: "conv2"
  type: "Convolution"
  bottom: "norm1"
  top: "conv2"
  param {
    lr_mult: 1
    decay_mult: 1
  }
  param {
    lr_mult: 2
    decay_mult: 0
  }
  convolution_param {
    num_output: 256
    pad: 2
    kernel_size: 5
    group: 2
    weight_filler {
      type: "gaussian"
      std: 0.01
    }
    bias_filler {
      type: "constant"
      value: 1
    }
  }
}
layer {
  name: "relu2"
  type: "ReLU"
  bottom: "conv2"
  top: "conv2"
}
layer {
  name: "pool2"
  type: "Pooling"
  bottom: "conv2"
  top: "pool2"
  pooling_param {
    pool: MAX
    kernel_size: 3
    stride: 2
  }
}
layer {
  name: "norm2"
  type: "LRN"
  bottom: "pool2"
  top: "norm2"
  lrn_param {
    local_size: 5
    alpha: 0.0001
    beta: 0.75
  }
}
layer {
  name: "conv3"
  type: "Convolution"
  bottom: "norm2"
  top: "conv3"
  param {
    lr_mult: 1
    decay_mult: 1
  }
  param {
    lr_mult: 2
    decay_mult: 0
  }
  convolution_param {
    num_output: 384
    pad: 1
    kernel_size: 3
    weight_filler {
      type: "gaussian"
      std: 0.01
    }
    bias_filler {
      type: "constant"
      value: 0
    }
  }
}
layer {
  name: "relu3"
  type: "ReLU"
  bottom: "conv3"
  top: "conv3"
}
layer {
  name: "conv4"
  type: "Convolution"
  bottom: "conv3"
  top: "conv4"
  param {
    lr_mult: 1
    decay_mult: 1
  }
  param {
    lr_mult: 2
    decay_mult: 0
  }
  convolution_param {
    num_output: 384
    pad: 1
    kernel_size: 3
    group: 2
    weight_filler {
      type: "gaussian"
      std: 0.01
    }
    bias_filler {
      type: "constant"
      value: 1
    }
  }
}
layer {
  name: "relu4"
  type: "ReLU"
  bottom: "conv4"
  top: "conv4"
}
layer {
  name: "conv5"
  type: "Convolution"
  bottom: "conv4"
  top: "conv5"
  param {
    lr_mult: 1
    decay_mult: 1
  }
  param {
    lr_mult: 2
    decay_mult: 0
  }
  convolution_param {
    num_output: 256
    pad: 1
    kernel_size: 3
    group: 2
    weight_filler {
      type: "gaussian"
      std: 0.01
    }
    bias_filler {
      type: "constant"
      value: 1
    }
  }
}
layer {
  name: "relu5"
  type: "ReLU"
  bottom: "conv5"
  top: "conv5"
}
layer {
  name: "pool5"
  type: "Pooling"
  bottom: "conv5"
  top: "pool5"
  pooling_param {
    pool: MAX
    kernel_size: 3
    stride: 2
  }
}
layer {
  name: "fc6"
  type: "InnerProduct"
  bottom: "pool5"
  top: "fc6"
  param {
    lr_mult: 1
    decay_mult: 1
  }
  param {
    lr_mult: 2
    decay_mult: 0
  }
  inner_product_param {
    num_output: 4096
    weight_filler {
      type: "gaussian"
      std: 0.005
    }
    bias_filler {
      type: "constant"
      value: 1
    }
  }
}
layer {
  name: "relu6"
  type: "ReLU"
  bottom: "fc6"
  top: "fc6"
}
layer {
  name: "drop6"
  type: "Dropout"
  bottom: "fc6"
  top: "fc6"
  dropout_param {
    dropout_ratio: 0.5
  }
}
layer {
  name: "fc7"
  type: "InnerProduct"
  bottom: "fc6"
  top: "fc7"
  param {
    lr_mult: 1
    decay_mult: 1
  }
  param {
    lr_mult: 2
    decay_mult: 0
  }
  inner_product_param {
    num_output: 4096
    weight_filler {
      type: "gaussian"
      std: 0.005
    }
    bias_filler {
      type: "constant"
      value: 1
    }
  }
}
layer {
  name: "relu7"
  type: "ReLU"
  bottom: "fc7"
  top: "fc7"
}
layer {
  name: "drop7"
  type: "Dropout"
  bottom: "fc7"
  top: "fc7"
  dropout_param {
    dropout_ratio: 0.5
  }
}
layer {
  name: "fc8"
  type: "InnerProduct"
  bottom: "fc7"
  top: "fc8"
  param {
    lr_mult: 1
    decay_mult: 1
  }
  param {
    lr_mult: 2
    decay_mult: 0
  }
  inner_product_param {
    num_output: 15
    weight_filler {
      type: "gaussian"
      std: 0.01
    }
    bias_filler {
      type: "constant"
      value: 0
    }
  }
}
layer {
  name: "accuracy"
  type: "Accuracy"
  bottom: "fc8"
  bottom: "label"
  top: "accuracy"
  include {
    phase: TEST
  }
}
layer {
  name: "loss"
  type: "SoftmaxWithLoss"
  bottom: "fc8"
  bottom: "label"
  top: "loss"
}
I1105 21:20:57.281388 15603 layer_factory.hpp:77] Creating layer data
I1105 21:20:57.281466 15603 net.cpp:100] Creating Layer data
I1105 21:20:57.281477 15603 net.cpp:408] data -> data
I1105 21:20:57.281486 15603 net.cpp:408] data -> label
I1105 21:20:57.281494 15603 data_transformer.cpp:25] Loading mean file from: data/dcase3/imagenet_mean.binaryproto
I1105 21:20:57.282447 15609 db_lmdb.cpp:35] Opened lmdb examples/dcase3/dcase3_val_lmdb
I1105 21:20:57.283285 15603 data_layer.cpp:41] output data size: 50,3,227,227
I1105 21:20:57.333256 15603 net.cpp:150] Setting up data
I1105 21:20:57.333288 15603 net.cpp:157] Top shape: 50 3 227 227 (7729350)
I1105 21:20:57.333295 15603 net.cpp:157] Top shape: 50 (50)
I1105 21:20:57.333299 15603 net.cpp:165] Memory required for data: 30917600
I1105 21:20:57.333307 15603 layer_factory.hpp:77] Creating layer label_data_1_split
I1105 21:20:57.333318 15603 net.cpp:100] Creating Layer label_data_1_split
I1105 21:20:57.333323 15603 net.cpp:434] label_data_1_split <- label
I1105 21:20:57.333329 15603 net.cpp:408] label_data_1_split -> label_data_1_split_0
I1105 21:20:57.333339 15603 net.cpp:408] label_data_1_split -> label_data_1_split_1
I1105 21:20:57.333413 15603 net.cpp:150] Setting up label_data_1_split
I1105 21:20:57.333423 15603 net.cpp:157] Top shape: 50 (50)
I1105 21:20:57.333428 15603 net.cpp:157] Top shape: 50 (50)
I1105 21:20:57.333431 15603 net.cpp:165] Memory required for data: 30918000
I1105 21:20:57.333436 15603 layer_factory.hpp:77] Creating layer conv1
I1105 21:20:57.333447 15603 net.cpp:100] Creating Layer conv1
I1105 21:20:57.333451 15603 net.cpp:434] conv1 <- data
I1105 21:20:57.333457 15603 net.cpp:408] conv1 -> conv1
I1105 21:20:57.334617 15603 net.cpp:150] Setting up conv1
I1105 21:20:57.334630 15603 net.cpp:157] Top shape: 50 96 55 55 (14520000)
I1105 21:20:57.334635 15603 net.cpp:165] Memory required for data: 88998000
I1105 21:20:57.334645 15603 layer_factory.hpp:77] Creating layer relu1
I1105 21:20:57.334651 15603 net.cpp:100] Creating Layer relu1
I1105 21:20:57.334656 15603 net.cpp:434] relu1 <- conv1
I1105 21:20:57.334661 15603 net.cpp:395] relu1 -> conv1 (in-place)
I1105 21:20:57.334667 15603 net.cpp:150] Setting up relu1
I1105 21:20:57.334672 15603 net.cpp:157] Top shape: 50 96 55 55 (14520000)
I1105 21:20:57.334676 15603 net.cpp:165] Memory required for data: 147078000
I1105 21:20:57.334681 15603 layer_factory.hpp:77] Creating layer pool1
I1105 21:20:57.334687 15603 net.cpp:100] Creating Layer pool1
I1105 21:20:57.334691 15603 net.cpp:434] pool1 <- conv1
I1105 21:20:57.334709 15603 net.cpp:408] pool1 -> pool1
I1105 21:20:57.340509 15603 net.cpp:150] Setting up pool1
I1105 21:20:57.340519 15603 net.cpp:157] Top shape: 50 96 27 27 (3499200)
I1105 21:20:57.340523 15603 net.cpp:165] Memory required for data: 161074800
I1105 21:20:57.340534 15603 layer_factory.hpp:77] Creating layer norm1
I1105 21:20:57.340543 15603 net.cpp:100] Creating Layer norm1
I1105 21:20:57.340546 15603 net.cpp:434] norm1 <- pool1
I1105 21:20:57.340551 15603 net.cpp:408] norm1 -> norm1
I1105 21:20:57.340579 15603 net.cpp:150] Setting up norm1
I1105 21:20:57.340585 15603 net.cpp:157] Top shape: 50 96 27 27 (3499200)
I1105 21:20:57.340590 15603 net.cpp:165] Memory required for data: 175071600
I1105 21:20:57.340593 15603 layer_factory.hpp:77] Creating layer conv2
I1105 21:20:57.340601 15603 net.cpp:100] Creating Layer conv2
I1105 21:20:57.340605 15603 net.cpp:434] conv2 <- norm1
I1105 21:20:57.340611 15603 net.cpp:408] conv2 -> conv2
I1105 21:20:57.349158 15603 net.cpp:150] Setting up conv2
I1105 21:20:57.349185 15603 net.cpp:157] Top shape: 50 256 27 27 (9331200)
I1105 21:20:57.349190 15603 net.cpp:165] Memory required for data: 212396400
I1105 21:20:57.349201 15603 layer_factory.hpp:77] Creating layer relu2
I1105 21:20:57.349210 15603 net.cpp:100] Creating Layer relu2
I1105 21:20:57.349215 15603 net.cpp:434] relu2 <- conv2
I1105 21:20:57.349220 15603 net.cpp:395] relu2 -> conv2 (in-place)
I1105 21:20:57.349236 15603 net.cpp:150] Setting up relu2
I1105 21:20:57.349247 15603 net.cpp:157] Top shape: 50 256 27 27 (9331200)
I1105 21:20:57.349251 15603 net.cpp:165] Memory required for data: 249721200
I1105 21:20:57.349256 15603 layer_factory.hpp:77] Creating layer pool2
I1105 21:20:57.349263 15603 net.cpp:100] Creating Layer pool2
I1105 21:20:57.349267 15603 net.cpp:434] pool2 <- conv2
I1105 21:20:57.349273 15603 net.cpp:408] pool2 -> pool2
I1105 21:20:57.349305 15603 net.cpp:150] Setting up pool2
I1105 21:20:57.349313 15603 net.cpp:157] Top shape: 50 256 13 13 (2163200)
I1105 21:20:57.349316 15603 net.cpp:165] Memory required for data: 258374000
I1105 21:20:57.349320 15603 layer_factory.hpp:77] Creating layer norm2
I1105 21:20:57.349326 15603 net.cpp:100] Creating Layer norm2
I1105 21:20:57.349330 15603 net.cpp:434] norm2 <- pool2
I1105 21:20:57.349335 15603 net.cpp:408] norm2 -> norm2
I1105 21:20:57.349362 15603 net.cpp:150] Setting up norm2
I1105 21:20:57.349369 15603 net.cpp:157] Top shape: 50 256 13 13 (2163200)
I1105 21:20:57.349372 15603 net.cpp:165] Memory required for data: 267026800
I1105 21:20:57.349376 15603 layer_factory.hpp:77] Creating layer conv3
I1105 21:20:57.349385 15603 net.cpp:100] Creating Layer conv3
I1105 21:20:57.349390 15603 net.cpp:434] conv3 <- norm2
I1105 21:20:57.349395 15603 net.cpp:408] conv3 -> conv3
I1105 21:20:57.373244 15603 net.cpp:150] Setting up conv3
I1105 21:20:57.373275 15603 net.cpp:157] Top shape: 50 384 13 13 (3244800)
I1105 21:20:57.373280 15603 net.cpp:165] Memory required for data: 280006000
I1105 21:20:57.373291 15603 layer_factory.hpp:77] Creating layer relu3
I1105 21:20:57.373299 15603 net.cpp:100] Creating Layer relu3
I1105 21:20:57.373304 15603 net.cpp:434] relu3 <- conv3
I1105 21:20:57.373311 15603 net.cpp:395] relu3 -> conv3 (in-place)
I1105 21:20:57.373319 15603 net.cpp:150] Setting up relu3
I1105 21:20:57.373324 15603 net.cpp:157] Top shape: 50 384 13 13 (3244800)
I1105 21:20:57.373328 15603 net.cpp:165] Memory required for data: 292985200
I1105 21:20:57.373332 15603 layer_factory.hpp:77] Creating layer conv4
I1105 21:20:57.373342 15603 net.cpp:100] Creating Layer conv4
I1105 21:20:57.373345 15603 net.cpp:434] conv4 <- conv3
I1105 21:20:57.373352 15603 net.cpp:408] conv4 -> conv4
I1105 21:20:57.391350 15603 net.cpp:150] Setting up conv4
I1105 21:20:57.391378 15603 net.cpp:157] Top shape: 50 384 13 13 (3244800)
I1105 21:20:57.391383 15603 net.cpp:165] Memory required for data: 305964400
I1105 21:20:57.391392 15603 layer_factory.hpp:77] Creating layer relu4
I1105 21:20:57.391402 15603 net.cpp:100] Creating Layer relu4
I1105 21:20:57.391407 15603 net.cpp:434] relu4 <- conv4
I1105 21:20:57.391413 15603 net.cpp:395] relu4 -> conv4 (in-place)
I1105 21:20:57.391422 15603 net.cpp:150] Setting up relu4
I1105 21:20:57.391427 15603 net.cpp:157] Top shape: 50 384 13 13 (3244800)
I1105 21:20:57.391430 15603 net.cpp:165] Memory required for data: 318943600
I1105 21:20:57.391434 15603 layer_factory.hpp:77] Creating layer conv5
I1105 21:20:57.391443 15603 net.cpp:100] Creating Layer conv5
I1105 21:20:57.391448 15603 net.cpp:434] conv5 <- conv4
I1105 21:20:57.391453 15603 net.cpp:408] conv5 -> conv5
I1105 21:20:57.405444 15603 net.cpp:150] Setting up conv5
I1105 21:20:57.405472 15603 net.cpp:157] Top shape: 50 256 13 13 (2163200)
I1105 21:20:57.405478 15603 net.cpp:165] Memory required for data: 327596400
I1105 21:20:57.405490 15603 layer_factory.hpp:77] Creating layer relu5
I1105 21:20:57.405499 15603 net.cpp:100] Creating Layer relu5
I1105 21:20:57.405504 15603 net.cpp:434] relu5 <- conv5
I1105 21:20:57.405510 15603 net.cpp:395] relu5 -> conv5 (in-place)
I1105 21:20:57.405519 15603 net.cpp:150] Setting up relu5
I1105 21:20:57.405524 15603 net.cpp:157] Top shape: 50 256 13 13 (2163200)
I1105 21:20:57.405529 15603 net.cpp:165] Memory required for data: 336249200
I1105 21:20:57.405531 15603 layer_factory.hpp:77] Creating layer pool5
I1105 21:20:57.405540 15603 net.cpp:100] Creating Layer pool5
I1105 21:20:57.405544 15603 net.cpp:434] pool5 <- conv5
I1105 21:20:57.405556 15603 net.cpp:408] pool5 -> pool5
I1105 21:20:57.405591 15603 net.cpp:150] Setting up pool5
I1105 21:20:57.405606 15603 net.cpp:157] Top shape: 50 256 6 6 (460800)
I1105 21:20:57.405609 15603 net.cpp:165] Memory required for data: 338092400
I1105 21:20:57.405613 15603 layer_factory.hpp:77] Creating layer fc6
I1105 21:20:57.405622 15603 net.cpp:100] Creating Layer fc6
I1105 21:20:57.405625 15603 net.cpp:434] fc6 <- pool5
I1105 21:20:57.405632 15603 net.cpp:408] fc6 -> fc6
I1105 21:20:58.416654 15603 net.cpp:150] Setting up fc6
I1105 21:20:58.416692 15603 net.cpp:157] Top shape: 50 4096 (204800)
I1105 21:20:58.416697 15603 net.cpp:165] Memory required for data: 338911600
I1105 21:20:58.416705 15603 layer_factory.hpp:77] Creating layer relu6
I1105 21:20:58.416715 15603 net.cpp:100] Creating Layer relu6
I1105 21:20:58.416721 15603 net.cpp:434] relu6 <- fc6
I1105 21:20:58.416728 15603 net.cpp:395] relu6 -> fc6 (in-place)
I1105 21:20:58.416738 15603 net.cpp:150] Setting up relu6
I1105 21:20:58.416743 15603 net.cpp:157] Top shape: 50 4096 (204800)
I1105 21:20:58.416745 15603 net.cpp:165] Memory required for data: 339730800
I1105 21:20:58.416749 15603 layer_factory.hpp:77] Creating layer drop6
I1105 21:20:58.416756 15603 net.cpp:100] Creating Layer drop6
I1105 21:20:58.416760 15603 net.cpp:434] drop6 <- fc6
I1105 21:20:58.416765 15603 net.cpp:395] drop6 -> fc6 (in-place)
I1105 21:20:58.416790 15603 net.cpp:150] Setting up drop6
I1105 21:20:58.416796 15603 net.cpp:157] Top shape: 50 4096 (204800)
I1105 21:20:58.416800 15603 net.cpp:165] Memory required for data: 340550000
I1105 21:20:58.416803 15603 layer_factory.hpp:77] Creating layer fc7
I1105 21:20:58.416812 15603 net.cpp:100] Creating Layer fc7
I1105 21:20:58.416816 15603 net.cpp:434] fc7 <- fc6
I1105 21:20:58.416822 15603 net.cpp:408] fc7 -> fc7
I1105 21:20:58.865021 15603 net.cpp:150] Setting up fc7
I1105 21:20:58.865056 15603 net.cpp:157] Top shape: 50 4096 (204800)
I1105 21:20:58.865062 15603 net.cpp:165] Memory required for data: 341369200
I1105 21:20:58.865072 15603 layer_factory.hpp:77] Creating layer relu7
I1105 21:20:58.865082 15603 net.cpp:100] Creating Layer relu7
I1105 21:20:58.865087 15603 net.cpp:434] relu7 <- fc7
I1105 21:20:58.865093 15603 net.cpp:395] relu7 -> fc7 (in-place)
I1105 21:20:58.865103 15603 net.cpp:150] Setting up relu7
I1105 21:20:58.865108 15603 net.cpp:157] Top shape: 50 4096 (204800)
I1105 21:20:58.865111 15603 net.cpp:165] Memory required for data: 342188400
I1105 21:20:58.865115 15603 layer_factory.hpp:77] Creating layer drop7
I1105 21:20:58.865121 15603 net.cpp:100] Creating Layer drop7
I1105 21:20:58.865125 15603 net.cpp:434] drop7 <- fc7
I1105 21:20:58.865130 15603 net.cpp:395] drop7 -> fc7 (in-place)
I1105 21:20:58.865154 15603 net.cpp:150] Setting up drop7
I1105 21:20:58.865160 15603 net.cpp:157] Top shape: 50 4096 (204800)
I1105 21:20:58.865164 15603 net.cpp:165] Memory required for data: 343007600
I1105 21:20:58.865167 15603 layer_factory.hpp:77] Creating layer fc8
I1105 21:20:58.865175 15603 net.cpp:100] Creating Layer fc8
I1105 21:20:58.865180 15603 net.cpp:434] fc8 <- fc7
I1105 21:20:58.865185 15603 net.cpp:408] fc8 -> fc8
I1105 21:20:58.866873 15603 net.cpp:150] Setting up fc8
I1105 21:20:58.866883 15603 net.cpp:157] Top shape: 50 15 (750)
I1105 21:20:58.866888 15603 net.cpp:165] Memory required for data: 343010600
I1105 21:20:58.866894 15603 layer_factory.hpp:77] Creating layer fc8_fc8_0_split
I1105 21:20:58.866899 15603 net.cpp:100] Creating Layer fc8_fc8_0_split
I1105 21:20:58.866904 15603 net.cpp:434] fc8_fc8_0_split <- fc8
I1105 21:20:58.866909 15603 net.cpp:408] fc8_fc8_0_split -> fc8_fc8_0_split_0
I1105 21:20:58.866916 15603 net.cpp:408] fc8_fc8_0_split -> fc8_fc8_0_split_1
I1105 21:20:58.866945 15603 net.cpp:150] Setting up fc8_fc8_0_split
I1105 21:20:58.866950 15603 net.cpp:157] Top shape: 50 15 (750)
I1105 21:20:58.866955 15603 net.cpp:157] Top shape: 50 15 (750)
I1105 21:20:58.866960 15603 net.cpp:165] Memory required for data: 343016600
I1105 21:20:58.866962 15603 layer_factory.hpp:77] Creating layer accuracy
I1105 21:20:58.866977 15603 net.cpp:100] Creating Layer accuracy
I1105 21:20:58.866987 15603 net.cpp:434] accuracy <- fc8_fc8_0_split_0
I1105 21:20:58.866992 15603 net.cpp:434] accuracy <- label_data_1_split_0
I1105 21:20:58.866998 15603 net.cpp:408] accuracy -> accuracy
…
